student_flutter/go_restful_api_demo_students/.dart_tool/chrome-device/Default/optimization_guide_prediction_model_downloads/1166e19c-95c7-451a-90ae-a7341c660d61/model.tflite (tflite, 410376 bytes, 166 tensors)

context_transformer_0/bottleneck_input/norm/add f4 [32]
-0.01865782 0.080631286 -0.13902783 0.0694013 0.11648102 0.08572043 -0.09385113 -0.10212135
0.2262839 0.057304196 -0.1779849 0.00065030204 -0.01779661 0.071730964 -0.042176504 0.14968532
0.3097295 -0.07709177 0.06831587 -0.12056485 -0.005676874 0.054726966 0.12230343 -0.12638016
0.03026089 0.20798668 0.15706974 -0.21833268 0.05509656 -0.18706134 -0.30271113 0.058966428
00000000: 49d8 98bc 0422 a53d 505d 0ebe 4522 8e3d
00000010: 9a8d ee3d 318e af3d 0535 c0bd 0025 d1bd
00000020: f7b6 673e ceb7 6a3d ac41 36be 0879 2a3a
00000030: 32ca 91bc afe7 923d 45c1 2cbd 1c47 193e
00000040: dd94 9e3e 4ae2 9dbd 31e9 8b3d b4ea f6bd
00000050: 1205 babb 6229 603d 397a fa3d cd69 01be
00000060: b0e5 f73c 76fa 543e e4d6 203e 9a92 5fbe
00000070: eeac 613d 028d 3fbe f4fc 9abe c886 713d

context_transformer_1/bottleneck_input/norm/add f4 [32]
0.0012244768 0.042013258 -0.28209212 0.028993027 0.2911967 0.068284124 -0.00302479 -0.22153991
-0.0069020903 0.12817663 -0.0019123517 -0.048478246 -0.19410525 0.12398024 -0.017713882 -0.059208438
0.22826213 -0.0065649953 -0.04619457 -0.00705822 0.03206414 0.06358357 -0.048437376 0.14332308
0.0017235819 -0.0148261245 -0.16603401 0.13589258 -0.13438068 0.018821638 0.053906586 -0.07392928
00000000: a07e a03a 1816 2c3d 616e 90be c982 ed3c
00000010: bc17 953e 8cd8 8b3d 8e3b 46bb 5cdb 62be
00000020: ee2a e2bb bc40 033e e0a7 faba 2091 46bd
00000030: 87c3 46be 5ae9 fd3d b41c 91bc 8c84 72bd
00000040: 8cbd 693e 2c1f d7bb 8436 3dbd a448 e7bb
00000050: b055 033d 1a38 823d 4566 46bd 49c3 123e
00000060: d0e9 e13a 46e9 72bc d204 2abe 6d27 0b3e
00000070: 179b 09be d62f 9a3c 27cd 5c3d 3c68 97bd

mention_transformer_0/bottleneck_input/norm/add f4 [32]
-0.1379573 0.020986434 0.0013495884 0.08520113 -0.047164746 -0.051321015 -0.039512396 -0.0067880587
0.041271467 0.153342 0.050624263 -0.19645637 0.17287365 -0.20905401 0.006702627 0.102468416
-0.15697733 0.05896163 0.12583467 0.2486651 -0.13390309 0.107262015 -0.31144506 -0.22350012
0.06140168 -0.1258485 0.11231788 -0.015903737 0.10314183 0.0005271151 -0.15784532 -0.13917683
00000000: ae44 0dbe beeb ab3c ace4 b03a ee7d ae3d
00000010: d22f 41bd fc35 52bd c0d7 21bd 5d6e debb
00000020: 450c 293d af05 1d3e 635b 4f3d dc2b 49be
00000030: ca05 313e 4112 56be b6a1 db3b f6da d13d
00000040: aabe 20be c081 713d ceda 003e 10a2 7e3e
00000050: e41d 09be 30ac db3d ba75 9fbe 37dd 64be
00000060: 5480 7b3d 6ede 00be eb06 e63d 8e48 82bc
00000070: 063c d33d 182e 0a3a 34a2 21be 5f84 0ebe

mention_transformer_1/bottleneck_input/norm/add f4 [32]
-0.06398675 -0.043145016 -0.018273342 -0.08916908 -0.34495825 0.005202095 -0.24497117 0.28839165
-0.036349393 -0.09405768 -0.03737124 -0.19368412 -0.117189825 -0.18358321 -0.021879643 0.028615555
-0.22742195 0.03148735 -0.0037047444 0.056764886 0.10907221 -0.2413442 -0.30177584 0.1970996
-0.19605501 0.24231845 0.01914588 -0.012602035 -0.13726117 -0.05334079 -0.059557624 -0.115759715
00000000: 7c0b 83bd d4b8 30bd fab1 95bc 479e b6bd
00000010: 5e9e b0be 5676 aa3b b9d9 7abe 12a8 933e
00000020: 1ae3 14bd 50a1 c0bd 9612 19bd 2155 46be
00000030: 3801 f0bd 3dfd 3bbe f03c b3bc 2b6b ea3c
00000040: 4de1 68be e1f8 003d 4ccb 72bb 4c82 683d
00000050: 4061 df3d ef22 77be 5d82 9abe 7ad4 493e
00000060: a5c2 48be 5422 783e d2d7 9c3c c478 4ebc
00000070: 318e 0cbe df7b 5abd b2f2 73bd 6e13 edbd

context_transformer_0/attention/value/add;context_transformer_0/attention/value/einsum/Einsum;context_transformer_0/attention/value/add/ReadVariableOp/resource f4 [32]
-0.028356269 -0.022673808 0.028746393 0.14145638 0.30293617 -0.0958051 0.10583723 0.20781957
0.1866026 0.04966897 -0.121790655 -0.026765116 0.029811 0.22983968 -0.27583787 0.13146192
0.047146313 -0.083856896 0.0927638 0.09713817 0.06526281 -0.055532385 -0.012109407 0.04137952
0.07398919 0.06675261 0.067919895 -0.076574616 -0.075145364 -0.027626177 0.027304363 -0.0018783085
00000000: 684b e8bc 6cbe b9bc 8e7d eb3c f1d9 103e
00000010: 731a 9b3e 7735 c4bd 31c1 d83d a7ce 543e
00000020: c114 3f3e b171 4b3d 616d f9bd 8442 dbbc
00000030: 3336 f43c 185b 6b3e 9f3a 8dbe f49d 063e
00000040: 7e1c 413d 2abd abbd f2fa bd3d 60f0 c63d
00000050: 82a8 853d ed75 63bd 8966 46bc 927d 293d
00000060: a587 973d 98b5 883d 9619 8b3d 27d3 9cbd
00000070: d0e5 99bd 4b50 e2bc 66ad df3c 9331 f6ba

context_transformer_0/bottleneck_input/norm/mul f4 [32, 32]
-0.07414348 0.05172965 -0.21457271 -0.26804927 -0.020233702 -0.3456161 0.15788846 -0.0065271296
0.4079577 -0.9723194 -0.1403816 0.34266412 -0.4388403 -0.14900917 0.085751824 0.41957295
-0.04832465 0.03633907 -0.10843844 0.2160412 0.014008842 0.17951114 0.11140412 0.040278386
0.12843953 -0.032507308 -0.04572217 -0.036562376 0.11792043 0.11745051 -0.29486695 0.094667196
-0.45921496 -0.08565984 0.031678338 0.024775108 -0.09569187 -0.29605648 0.21478291 -0.28049728
-0.028552098 -0.3676727 -0.14944059 0.21186736 -0.13799402 0.7316569 0.24106094 -0.45573026
-0.11255978 -0.0501015 -0.022450913 0.10537937 -0.21750984 0.2525536 0.21805765 0.064622
-0.2928978 0.16599599 -0.17676459 0.18226026 0.21387206 -0.0991066 0.14419393 -0.00041269357
0.22380735 -0.10512147 0.035318393 0.084288664 -0.24102153 0.33680123 -0.09805865 0.046004526
0.291625 0.09542454 0.20197071 0.11168991 0.09281845 -0.34111935 0.2002405 -0.12438068
0.0037333232 0.52635866 0.09232375 -0.03374844 0.28222737 -0.059884656 0.2777702 0.162912
0.26733124 0.16717064 -0.007651519 0.124749534 0.02405285 -0.44397113 -0.53904194 0.49888983
0.30381727 0.14647049 -0.21482915 -0.16392845 0.02890157 0.31808028 0.019306617 0.11082569
-0.16739479 -0.056058433 -0.09318828 0.2960709 0.21637213 0.22300395 -0.01516101 0.28624925
-0.1395757 -0.40003228 0.033854328 -0.031802017 -0.25179657 0.034085732 0.2992657 0.026574856
-0.031029824 0.37555674 0.08529402 -0.16160618 -0.04895665 0.5114816 0.08917495 -0.25807163
0.16088317 0.02498498 -0.06924058 0.2684591 0.40053403 0.045381572 0.20469813 -0.08123902
0.09903237 -0.153544 0.1304134 -0.535741 -0.057128444 0.48784617 0.32682574 -0.042510267
-0.041804418 -0.3377208 -0.25109634 0.02221949 0.089027114 0.23887259 -0.046368144 0.0484146
0.04688109 -0.08229574 0.045127273 -0.09941748 0.28601298 -0.29306805 -0.25134733 -0.0050419336
0.07981492 0.2261408 -0.12943019 -0.15914634 -0.13760586 0.18424809 0.008368264 0.0051397956
0.08189422 -0.13055252 -0.11434171 0.12199334 0.23241307 -0.058841165 0.41241345 0.07389875
-0.10288878 0.14284459 0.17040549 0.0089884205 -0.3086719 0.060062338 0.11440571 -0.038723953
0.013393182 0.06256997 0.13185331 0.24797617 -0.024340566 0.08620605 -0.06966459 -0.26895788
0.04432394 0.0739979 -0.000570521 0.085420564 0.0044290475 -0.057562016 0.06715412 0.11894076
0.05157714 -0.037348192 0.061359543 -0.08814147 -0.020474123 -0.030883856 -0.0052814637 0.06725071
-0.097817086 0.0038254168 0.050218955 0.05741078 -0.0070084142 0.006870253 0.018991766 0.0663018
0.07710427 -0.0071138623 0.07069794 -0.009243877 0.14428473 -0.07109732 0.0697949 0.04428222
-0.021097904 -0.004434382 0.16177815 -0.22098011 -0.0042969314 0.092262655 -0.22971512 0.26119572
0.24631597 -0.32881084 -0.029799711 -0.14792728 0.020190006 -0.44164675 0.48227033 0.014022293
-0.14506435 -0.16763076 0.08680967 0.30278262 0.12204558 -0.44656256 -0.19659242 -0.015391614
0.33871546 0.47471264 0.3301892 0.07078899 0.2046938 -0.45197356 -0.24152866 -0.058328267
00000000: 89d8 97bd 78e2 533d f3b8 5bbe c13d 89be
00000010: 26c1 a5bc 98f4 b0be 83ad 213e 88e1 d5bb
00000020: d5df d03e ede9 78bf 32c0 0fbe ac71 af3e
00000030: adaf e0be dc95 18be a79e af3d 44d2 d63e
00000040: 11f0 45bd 47d8 143d f914 debd e839 5d3e
00000050: 5885 653c c5d1 373e d827 e43d f3fa 243d
00000060: a785 033e 6226 05bd 2c47 3bbd 6ec2 15bd
00000070: 4480 f13d e589 f03d cdf8 96be e0e0 c13d
00000080: 391e ebbe 6d6e afbd 25c1 013d 2bf5 ca3c
00000090: 19fa c3bd b794 97be 0df0 5b3e 579d 8fbe
000000a0: 17e6 e9bc 993f bcbe f406 19be c2f3 583e
000000b0: 4e4e 0dbe de4d 3b3f aed8 763e 7a55 e9be
000000c0: be85 e6bd 3b37 4dbd faea b7bc 24d1 d73d
000000d0: e6ba 5ebe b54e 813e 814a 5f3e 8a58 843d
000000e0: b3f6 95be dafa 293e c701 35be 6fa2 3a3e
000000f0: 4701 5b3e 67f8 cabd 93a7 133e cb5e d8b9
00000100: c12d 653e ed49 d7bd 05aa 103d 899f ac3d
00000110: 59ce 76be 3671 ac3e f9d2 c8bd 3e6f 3c3d
00000120: df4f 953e f16d c33d 69d1 4e3e aebd e43d
00000130: 9917 be3d 32a7 aebe d80b 4d3e 4cbb febd
00000140: c5aa 743b 71bf 063f 3c14 bd3d ce3b 0abd
00000150: 1b80 903e 9d49 75bd e537 8e3e 67d2 263e
00000160: a4df 883e c82e 2b3e 98b9 fabb af7c ff3d
00000170: 7c0a c53c 2f50 e3be a7fe 09bf 7d6e ff3e
00000180: f08d 9b3e 5cfc 153e 2cfc 5bbe dcdc 27be
00000190: fcc2 ec3c 6bdb a23e e928 9e3c 94f8 e23d
000001a0: 8a69 2bbe 879d 65bd 7fd9 bebd 9b96 973e
000001b0: a890 5d3e 265b 643e e365 78bc 438f 923e
000001c0: efec 0ebe 08d1 ccbe d6aa 0a3d d542 02bd
000001d0: 7beb 80be 7b9d 0b3d 5b39 993e 83b3 d93c
000001e0: 4232 febc f948 c03e a2ae ae3d 177c 25be
000001f0: c586 48bd 75f0 023f 5ba1 b63d f721 84be
00000200: 8fbe 243e 4dad cc3c 01ce 8dbd 7973 893e
00000210: cc12 cd3e 07e2 393d 639c 513e a560 a6bd
00000220: 7cd1 ca3d a33a 1dbe 178b 053e 5226 09bf
00000230: 84ff 69bd f9c6 f93e b455 a73e 3f1f 2ebd
00000240: 1c3b 2bbd bee9 acbe b38f 80be a605 b63c
00000250: d953 b63d 049b 743e 86ec 3dbd 634e 463d
00000260: 6306 403d ab8a a8bd 60d7 383d 649b cbbd
00000270: 4b70 923e 040d 96be 99b0 80be ce36 a5bb
00000280: 0176 a33d 7491 673e 5989 04be 42f7 22be
00000290: 8de8 0cbe 88ab 3c3e 0b1b 093c bb6b a83b
000002a0: 28b8 a73d 8faf 05be fd2b eabd a5d7 f93d
000002b0: b1fd 6d3e 6f03 71bd db27 d33e 3a58 973d
000002c0: 5ab7 d2bd da45 123e c77e 2e3e 2b44 133c
000002d0: 3e0a 9ebe ed03 763d 8a4d ea3d 029d 1ebd
000002e0: 146f 5b3c af24 803d 8e04 073e 77ed 7d3e
000002f0: de65 c7bc cc8c b03d 4fac 8ebd d9b4 89be
00000300: 058d 353d 368c 973d 048f 15ba faf0 ae3d
00000310: 8b21 913b 26c6 6bbd 1988 893d 3797 f33d
00000320: 8d42 533d 6bfa 18bd 2554 7b3d 8483 b4bd
00000330: 59b9 a7bc 2400 fdbc 2110 adbb beba 893d
00000340: 5354 c8bd d8b3 7a3b 64b2 4d3d 9127 6b3d
00000350: d7a6 e5bb dc1f e13b 9f94 9b3c 3dc9 873d
00000360: d8e8 9d3d 671b e9bb 15ca 903d a173 17bc
00000370: 60bf 133e 799b 91bd a1f0 8e3d 4661 353d
00000380: 83d5 acbc 4b4e 91bb 2ca9 253e 9c48 62be
00000390: 46cd 8cbb 34f4 bc3d 713a 6bbe 72bb 853e
000003a0: 413a 7c3e e559 a8be 861e f4bc 407a 17be
000003b0: 8365 a53c 861f e2be 23ec f63e c2bd 653c
000003c0: c08b 14be 66a7 2bbe 45c9 b13d 5306 9b3e
000003d0: 08f3 f93d d9a3 e4be 864f 49be 1c2d 7cbc
000003e0: 1d6c ad3e 890d f33e 8f0e a93e d1f9 903d
000003f0: 409b 513e 1469 e7be 4a53 77be 9fe9 6ebd

context_transformer_0/kq_shared_bottleneck/norm/mul;context_transformer_0/kq_shared_bottleneck/norm/add;context_transformer_0/attention/key/einsum/Einsum;context_transformer_0/attention/key/add;context_transformer_0/attention/value/einsum/Einsum;context_transformer_0/attention/key/add/ReadVariableOp/resource f4 [32]
0.2606335 -0.18488726 -0.1742686 0.08848069 0.2260493 0.21147649 0.16547078 0.23053193
-0.06798679 -0.11444766 0.09678455 -0.07111247 -0.10068877 -0.09971882 -0.20523545 0.08953204
-0.23188189 0.2412832 -0.07366663 -0.27900988 0.08755069 0.0010620407 -0.09391439 -0.0027014613
2.1569145e-05 -0.24763536 0.055983637 0.0015426208 -0.18660519 0.23695555 -0.06279713 0.20818779
00000000: c171 853e 1653 3dbe 7873 32be 5d35 b53d
00000010: 7879 673e 4b8d 583e 2c71 293e 9010 6c3e
00000020: a83c 8bbd 8963 eabd fa36 c63d 6aa3 91bd
00000030: ea35 cebd 6139 ccbd 3e29 52be 935c b73d
00000040: 7272 6dbe f112 773e 88de 96bd 62da 8ebe
00000050: c74d b33d 2c34 8b3a 3056 c0bd 000b 31bb
00000060: 63ef b437 2094 7dbe 194f 653d c431 ca3a
00000070: 6e15 3fbe 7aa4 723e c89b 80bd 2e2f 553e

context_transformer_0/kq_shared_bottleneck/norm/mul;context_transformer_0/kq_shared_bottleneck/norm/add;context_transformer_0/attention/key/einsum/Einsum;context_transformer_0/attention/key/add;context_transformer_0/attention/value/einsum/Einsum;context_transformer_0/attention/key/add/ReadVariableOp/resource1 f4 [32, 32]
0.49320412 0.039140135 -0.07854579 0.3232451 0.3885947 -0.41829768 -0.91380936 0.02528303
0.015568795 0.5742112 -0.27143607 -0.70581764 -0.17256485 0.14588274 -0.51379555 0.29716235
0.90891016 0.6241067 0.15447006 -0.39920196 0.3880054 -0.27252522 0.43543246 -0.025761481
-0.14949529 -0.088193856 0.13511872 -0.27764842 -0.20431925 -0.6129383 0.07695414 0.37538218
0.53202534 0.12441207 -0.20323707 0.13447623 -0.055322863 -0.166272 0.521353 0.059943765
0.15300421 -0.044167895 -0.35941938 0.34465435 -0.039051794 -0.06698695 -0.25651836 -0.1819183
-0.4662369 -0.22798151 0.47009355 0.115896344 -0.08151378 -0.031859722 0.17326954 0.20487262
-0.30635428 -0.34539717 0.024644515 -0.0015277088 -0.06743877 0.28570575 -0.34168628 0.25133973
0.71748525 -0.42116946 -0.23083372 0.43242142 0.41688472 -0.18034033 -0.12711796 -0.5078752
-0.45880762 0.031735152 -0.17567836 0.042963877 -0.30958968 0.16143979 -0.46524408 -0.46752143
0.019740775 -0.14163315 -0.3735648 -0.44922075 -0.31494224 -0.55967396 0.4286837 -0.22639383
-0.19037311 0.20596232 0.14833018 -0.20431642 -0.26238814 -0.08076984 0.9756122 -0.4730152
0.3784269 0.4012847 0.07668369 -0.52229 0.19057007 -0.4808669 -0.57360345 -0.16454278
-0.4788922 0.32372746 -0.02534873 -0.2571387 0.23724881 0.22468908 0.15264791 0.19260651
0.22859316 0.27996573 -0.30082223 0.1003828 -0.02518934 -0.06146003 -0.3048605 -0.13734841
0.14568849 0.064657 0.06896858 0.28985414 -0.34136266 -0.42169622 -0.28518698 -0.5329234
-0.4208462 0.18319695 0.1935499 -0.17286088 -0.25462818 0.036279973 -0.2121622 0.42398047
0.4743163 0.09212378 0.1375986 -0.2522904 0.41596767 -0.15281948 0.24417204 0.49959996
0.13430637 0.20262994 0.40306515 0.19528422 0.3399475 0.4194867 -0.25620225 0.086837254
0.15277064 -0.18777913 -0.18461722 -0.059329648 0.38705054 -0.023203952 -0.6484684 0.6825645
-0.016148886 0.02414588 0.005519155 -0.24850589 -0.09820194 -0.21226464 -0.38049176 0.39081413
0.6110074 0.12977996 0.1417482 -0.33722758 0.88338816 0.0396239 0.36924717 0.39680418
0.044324644 0.24666004 0.5396768 0.22531237 0.17658427 0.596704 -0.35115963 0.12944624
0.56254375 -0.13426012 -0.10323253 -0.10067016 0.6136339 -0.095300406 -0.11319825 0.6890308
-0.55687284 0.08274675 0.2729859 -0.14352772 0.0017120343 0.2008059 -0.39248878 -0.009798887
-0.25725576 0.073723674 0.27018663 -0.3088587 -0.22765747 -0.03971436 0.15390995 0.15972951
0.51635367 0.2912483 -0.4779694 -0.09524297 0.14887716 -0.08841001 -0.12532128 -0.24313799
0.036972847 0.31594637 -0.029199688 0.14493436 -0.194433 -0.27022812 -0.02508744 -0.35315093
-0.12822774 -0.11195086 0.067074575 0.29857668 0.17194763 -0.042761125 -0.6808136 0.25670585
0.46885678 0.22329637 0.04263582 -0.5410342 0.17443039 -0.08210956 -0.12195361 0.3890731
0.68451697 0.3931642 0.26235682 -0.26925465 0.27915892 0.08617739 0.22511436 -0.118592516
-0.030634252 -0.040964827 -0.15873596 -0.34955108 0.33341327 -0.21340486 0.06492965 0.7235325
00000000: 4085 fc3e 6851 203d 9ddc a0bd 6280 a53e
00000010: e2f5 c63e 1d2b d6be 69ef 69bf 5b1e cf3c
00000020: 4214 7f3c 81ff 123f abf9 8abe 77b0 34bf
00000030: d7b4 30be 4962 153e 1b88 03bf aa25 983e
00000040: 56ae 683f 75c5 1f3f 662d 1e3e 3364 ccbe
00000050: a5a8 c63e 6d88 8bbe 01f1 de3e be09 d3bc
00000060: 4b15 19be fb9e b4bd 905c 0a3e ef27 8ebe
00000070: 1139 51be 86e9 1cbf 229a 9d3d 1832 c03e
00000080: d032 083f c1cb fe3d 611d 50be 23b4 093e
00000090: 3a9a 62bd 3543 2abe 6477 053f 9887 753d
000000a0: 23ad 1c3e 65e9 34bd d105 b8be 8976 b03e
000000b0: c6f4 1fbd 7430 89bd 6056 83be ca48 3abe
000000c0: 9ab6 eebe fc73 69be 1ab0 f03e 105b ed3d
000000d0: b2f0 a6bd 577f 02bd 926d 313e 21ca 513e
000000e0: 78da 9cbe e6d7 b0be 4be3 c93c 673d c8ba
000000f0: 561d 8abd 0648 923e 81f1 aebe 9aaf 803e
00000100: 1dad 373f 86a3 d7be ad5f 6cbe 5766 dd3e
00000110: ea71 d53e 23ab 38be 362b 02be 1c04 02bf
00000120: d5e8 eabe b8fc 013d 07e5 33be e4fa 2f3d
00000130: 8a82 9ebe 7950 253e 7934 eebe f85e efbe
00000140: 68b7 a13c 4808 11be e343 bfbe 4300 e6be
00000150: 1c40 a1be cb46 0fbf 6e7c db3e c9d3 67be
00000160: 2bf1 42be c9e7 523e dee3 173e 5338 51be
00000170: bd57 86be a86a a5bd b9c1 793f 0c2f f2be
00000180: 2cc1 c13e 3075 cd3e 570c 9d3d ccb4 05bf
00000190: cd24 433e 3034 f6be add7 12bf e77d 28be
000001a0: 5c31 f5be 9bbf a53e 24a8 cfbc afa7 83be
000001b0: 5af1 723e e514 663e bc4f 1c3e a43a 453e
000001c0: 5314 6a3e ab57 8f3e 5f05 9abe 7f95 cd3d
000001d0: e059 cebc 83bd 7bbd ad16 9cbe 10a5 0cbe
000001e0: 5d2f 153e e46a 843d 663f 8d3d c367 943e
000001f0: 16c7 aebe 91e8 d7be 0704 92be ab6d 08bf
00000200: 2779 d7be fb97 3b3e f231 463e 7102 31be
00000210: a05e 82be 4f9a 143d 0c41 59be f813 d93e
00000220: 96d9 f23e 64ab bc3d a6e6 0c3e 352c 81be
00000230: b7f9 d43e b67c 1cbe 3c08 7a3e 91cb ff3e
00000240: 9c87 093e 397e 4f3e 8e5e ce3e 96f8 473e
00000250: 990d ae3e f6c6 d63e f12c 83be bbd7 b13d
00000260: e86f 1c3e 2c49 40be 4c0c 3dbe a503 73bd
00000270: 7d2b c63e 3716 bebc 0602 26bf 8cbc 2e3f
00000280: ab4a 84bc 95cd c53c 07da b43b 5478 7ebe
00000290: 191e c9bd e75b 59be d1cf c2be ca18 c83e
000002a0: fb6a 1c3f 0ae5 043e 7126 113e 18a9 acbe
000002b0: ba25 623f ac4c 223d f70d bd3e eb29 cb3e
000002c0: c28d 353d 7394 7c3e 4228 0a3f 49b8 663e
000002d0: 82d2 343e 98c1 183f 32cb b3be 8e8d 043e
000002e0: de02 103f 7c7b 09be 946b d3bd 282c cebd
000002f0: 1c17 1d3f dc2c c3bd 7cd4 e7bd 5364 303f
00000300: 388f 0ebf 2177 a93d cfc4 8b3e eef8 12be
00000310: 5766 e03a 10a0 4d3e 4af4 c8be 838b 20bc
00000320: 07b7 83be 70fc 963d e755 8a3e ba22 9ebe
00000330: 0a1f 69be 86ab 22bd 929a 1d3e 2290 233e
00000340: c12f 043f 7f1e 953e 68b8 f4be bf0e c3bd
00000350: 4173 183e 4f10 b5bd 3954 00be 2af9 78be
00000360: d770 173d b9c3 a13e 2f34 efbc ac69 143e
00000370: 7219 47be 575b 8abe 2d84 cdbc 33d0 b4be
00000380: 224e 03be 7e46 e5bd 655e 893d 0bdf 983e
00000390: 0a13 303e 4a26 2fbd cd49 2ebf f36e 833e
000003a0: ff0d f03e cea7 643e e6a2 2e3d 3881 0abf
000003b0: e19d 323e 0f29 a8bd d0c2 f9bd 9734 c73e
000003c0: 813c 2f3f d14c c93e a253 863e bfdb 89be
000003d0: ebed 8e3e c57d b03d 6184 663e a2e0 f2bd
000003e0: aff4 fabc bcca 27bd ae8b 22be 5cf8 b2be
000003f0: 25b5 aa3e ce86 5abe d6f9 843d 6d39 393f

context_transformer_0/kq_shared_bottleneck/norm/mul;context_transformer_0/kq_shared_bottleneck/norm/add;context_transformer_0/attention/query/einsum/Einsum;context_transformer_0/attention/query/add;context_transformer_0/attention/value/einsum/Einsum;context_transformer_0/attention/query/add/ReadVariableOp/resource;context_transformer_0/attention/Mul;context_transformer_0/attention/Mul/y f4 [32]
-0.088826574 -0.19076231 0.034860164 0.10977933 -0.0018266878 0.15089318 0.08247228 -0.0070532765
-0.03443756 0.22070937 -0.10257222 0.07642578 0.15231767 -0.07311586 0.022958713 -0.14260614
0.079347506 -0.09222936 -0.105799004 -0.028695837 0.01401959 0.077587605 0.013109875 0.43182188
0.084151246 0.114505365 0.07239938 -0.11400532 0.19852874 -0.11167466 0.21461278 -0.09484929
00000000: b5ea b5bd 3257 43be 88c9 0e3d fcd3 e03d
00000010: 796d efba be83 1a3e 3ae7 a83d 2c1f e7bb
00000020: 660e 0dbd a301 623e 6211 d2bd 1f85 9c3d
00000030: 2af9 1b3e c5bd 95bd e913 bc3c 5807 12be
00000040: f280 a23d bfe2 bcbd 26ad d8bd 8813 ebbc
00000050: 6cb2 653c 40e6 9e3d cdca 563c c217 dd3e
00000060: 7d57 ac3d ca81 ea3d 2046 943d 9f7b e9bd
00000070: 1e4b 4b3e afb5 e4bd 74c3 5b3e 5840 c2bd

context_transformer_0/kq_shared_bottleneck/norm/mul;context_transformer_0/kq_shared_bottleneck/norm/add;context_transformer_0/attention/query/einsum/Einsum;context_transformer_0/attention/query/add;context_transformer_0/attention/value/einsum/Einsum;context_transformer_0/attention/query/add/ReadVariableOp/resource;context_transformer_0/attention/Mul;context_transformer_0/attention/Mul/y1 f4 [32, 32]
-0.059279572 -0.09906484 -0.09864542 0.12156463 -0.20512694 -0.21213146 -0.03938789 -0.08369497
0.111711085 0.090320095 -0.19311692 -0.04905934 -0.11350921 0.31275997 -0.03147758 -0.012183521
0.17106974 -0.03221535 -0.029843291 0.013682012 -0.03751988 -0.1169712 0.091001585 0.17441764
-0.14124401 -0.09342262 0.46998903 0.012926953 -0.03889926 -0.080478825 0.04722758 0.040553182
0.0561929 0.097973704 0.020838313 -0.06775038 -0.06524906 -0.08731025 0.0046802666 -0.11550365
0.024600388 0.040675078 -0.037837032 -0.020211928 -0.0024350826 -0.13475901 0.031762116 -0.024732674
-0.0039174925 -0.04829565 -0.007101632 0.101198435 -0.090603165 -0.1299251 -0.044816606 -0.06506212
-0.23025267 0.008220424 -0.12802562 0.044360477 -0.15193824 0.019129703 -0.12437247 -0.022737822
-0.27501118 -0.19499533 0.08612513 -0.004389174 -0.2220965 0.040153574 -0.052629165 -0.26151085
-0.07646868 0.119102836 -0.08647186 -0.075591184 -0.14917094 -0.062095497 -0.04119485 -0.012503634
0.10516967 0.006563798 -0.007359205 -0.13714857 0.041861866 -0.11752004 0.11857572 -0.011875007
-0.29139358 0.04584107 0.09101658 -0.20486623 0.20913264 -0.03354094 0.16904254 0.1454079
0.124167584 -0.094532974 0.004740201 -0.16841519 -0.0030049437 -0.20629898 -0.04063781 -0.05632987
-0.17925996 0.034018822 -0.06493907 0.03987829 0.19902284 0.17856382 -0.0029247098 -0.00038606743
-0.111709505 -0.019288994 -0.030876318 -0.06780267 -0.037416983 0.10205771 -0.025507057 0.047790606
0.06623732 -0.09537475 0.17715988 -0.08385855 0.22714691 -0.02085069 -0.015213642 -0.029332507
0.19130045 0.16123585 -0.115823545 0.122282 0.123300776 -0.08564358 0.023416726 0.18440022
0.091248184 -0.06542089 -0.0075888196 0.031056669 0.043776862 0.1285777 -0.005690303 0.02883018
-0.029613875 0.009497552 -0.028120559 0.13882825 0.005256448 0.015627028 -0.052691787 0.05543682
0.16144866 -0.045003086 0.04349649 0.20965162 -0.27538776 -0.023733946 -0.12232232 -0.13059312
0.103507385 0.20723075 -0.10300528 0.07736381 -0.0007511924 -0.13697432 -0.054309618 0.12657648
0.061582148 0.005607856 -0.02115424 -0.053128716 0.011839644 0.12457484 0.0225905 0.122008376
-0.034544114 0.09305996 -0.040601026 0.19079305 0.0816602 -0.027374603 -0.06447679 0.053331193
0.046584126 -0.05685126 0.039904293 0.24393967 -0.27818984 -0.043719277 -0.22073762 -0.12522177
0.021750426 -0.13174416 -0.026213724 0.03310998 0.11361451 0.047750015 0.044062812 0.13350946
0.0012479402 -0.07534145 0.016967755 0.05580034 0.05728579 0.13058318 -0.037032142 -0.04784452
-0.0025262479 -0.019837692 0.032254726 -0.12877996 0.00994933 0.15535842 0.050508767 0.06770305
0.26907858 -0.02017913 0.13015662 -0.08591822 0.1713994 0.019158764 0.16170277 0.03263282
-0.06676047 0.044598006 -0.10517749 0.23413734 -0.061534006 -0.04746074 -0.0017965842 0.07215007
0.15157725 0.010316204 -0.10920589 -0.022081163 -0.16356903 0.21427956 -0.041316573 -0.005128018
0.12340586 0.017933989 -0.03795881 0.09012643 0.025426283 -0.094610415 0.07200536 0.11953643
-0.01945007 -0.038710926 0.29355827 0.13464975 -0.2370704 -0.050908823 0.024450392 -0.042717323
00000000: 23cf 72bd 82e2 cabd 9c06 cabd e0f6 f83d
00000010: cc0c 52be fd38 59be 3255 21bd 4568 abbd
00000020: c8c8 e43d bef9 b83d 71c0 45be 72f2 48bd
00000030: 8477 e8bd 1322 a03e a3ee 00bd 649d 47bc
00000040: e82c 2f3e 3ef4 03bd eb79 f4bc 852a 603c
00000050: 72ae 19bd 998e efbd 0a5f ba3d 8a9a 323e
00000060: 45a2 10be 5c54 bfbd 67a2 f03e 92cb 533c
00000070: d554 1fbd 15d2 a4bd b571 413d 181b 263d
00000080: 872a 663d 70a6 c83d 1cb5 aa3c b6c0 8abd
00000090: 4da1 85bd b7cf b2bd ec5c 993b 2d8d ecbd
000000a0: c186 c93c e99a 263d 01fb 1abd 7c93 a5bc
000000b0: e895 1fbb 44fe 09be fe18 023d 2d9c cabc
000000c0: 4f5e 80bb a9d1 45bd cfb4 e8bb 2041 cf3d
000000d0: 278e b9bd 160b 05be 9e91 37bd 4a3f 85bd
000000e0: 5bc7 6bbe f5ae 063c 2619 03be 55b3 353d
000000f0: b395 1bbe e5b5 9c3c feb6 febd ab44 babc
00000100: 44ce 8cbe dbac 47be 5f62 b03d 0fd3 8fbb
00000110: 446d 63be 1378 243d ae91 57bd c0e4 85be
00000120: 9c9b 9cbd 30ec f33d 2918 b1bd 8dcf 9abd
00000130: 44c0 18be d957 7ebd eebb 28bd 0bdc 4cbc
00000140: 3263 d73d 2115 d73b 7c25 f1bb ad70 0cbe
00000150: 5977 2b3d 59ae f0bd d4d7 f23d 648f 42bc
00000160: 8a31 95be d9c3 3b3d e766 ba3d 74c8 51be
00000170: de26 563e 3a62 09bd 7d19 2d3e cfe5 143e
00000180: 934b fe3d 819a c1bd b053 9b3b 0875 2cbe
00000190: 97ee 44bb 0a40 53be d573 26bd 26ba 66bd
000001a0: ec8f 37be 5257 0b3d c6fe 84bd 6b57 233d
000001b0: a5cc 4b3e 6fd9 363e 7dac 3fbb 1869 cab9
000001c0: f4c7 e4bd f403 9ebc 55f0 fcbc 20dc 8abd
000001d0: 8d42 19bd a203 d13d 2df4 d0bc 15c0 433d
000001e0: 6fa7 873d d653 c3bd 6669 353e 08be abbd
000001f0: 3399 683e 11cf aabc a442 79bc ba4a f0bc
00000200: 44e4 433e 031b 253e e534 edbd fc6e fa3d
00000210: 1e85 fc3d e765 afbd 6fd4 bf3c 69d3 3c3e
00000220: 54e0 ba3d 63fb 85bd a2ab f8bb 8e6a fe3c
00000230: 5e4f 333d dfa9 033e b975 babb 452d ec3c
00000240: cc98 f2bc 9f9b 1b3c 165d e6bc fe28 0e3e
00000250: 483e ac3b 4104 803c 58d3 57bd b811 633d
00000260: cc52 253e 2855 38bd 6029 323d eaae 563e
00000270: a0ff 8cbe b16d c2bc 2084 fabd 34ba 05be
00000280: aefb d33d 4c34 543e 6ff4 d2bd eb70 9e3d
00000290: abeb 44ba ff42 0cbe c373 5ebd 449d 013e
000002a0: 903d 7c3d 1bc2 b73b a84b adbc 7f9d 59bd
000002b0: 11fb 413c 1821 ff3d b60f b93c 87df f93d
000002c0: 217e 0dbd 3896 be3d 434d 26bd 415f 433e
000002d0: 773d a73d b440 e0bc 680c 84bd cf71 5a3d
000002e0: ffce 3e3d dedc 68bd af72 233d 52cb 793e
000002f0: e66e 8ebe fc12 33bd 0b09 62be 233a 00be
00000300: f32d b23c f1e7 06be 2abe d6bc 559e 073d
00000310: b9ae e83d 8595 433d 357b 343d b4b6 083e
00000320: ed91 a33a 9e4c 9abd f6ff 8a3c e68e 643d
00000330: 81a4 6a3d 99b7 053e 04af 17bd 9ef8 43bd
00000340: 688f 25bb a882 a2bc 881d 043d e5de 03be
00000350: 8402 233c 4716 1f3e 48e2 4e3d e6a7 8a3d
00000360: abc4 893e b44e a5bc c747 053e e4f5 afbd
00000370: 5383 2f3e d7f2 9c3c 6995 253e fea9 053d
00000380: b7b9 88bd 66ac 363d 4c67 d7bd b3c1 6f3e
00000390: 150b 7cbd 3166 42bd 5d7b ebba 6ac3 933d
000003a0: 1137 1b3e 4c05 293c 56a7 dfbd 8ee3 b4bc
000003b0: a47e 27be 1a6c 5b3e 913b 29bd ef08 a8bb
000003c0: 36bc fc3d 4dea 923c b27a 1bbd 3594 b83d
000003d0: c84a d03c 1bc3 c1bd 8c77 933d 84cf f43d
000003e0: c155 9fbc 598f 1ebd 454d 963e a0e1 093e
000003f0: 95c2 72be c585 50bd 304c c83c 5cf8 2ebd

context_transformer_0/ffn_layer_0/intermediate_dense/einsum/Einsum;context_transformer_0/ffn_layer_0/intermediate_dense/Relu;context_transformer_0/ffn_layer_0/intermediate_dense/add f4 [32]
-0.013910216 -0.15318803 -0.3521752 -0.25694245 -0.36535805 -0.39953995 -0.1918908 -0.38523498
-0.06332016 -0.6735934 -0.24640396 -0.5491038 -0.14908524 -0.51391447 -0.23137581 -0.19590038
-0.20904134 -0.23216997 -0.415363 -0.21538132 -0.39276862 -0.50391006 -0.18134513 -0.32029557
-0.2992931 -0.35745174 -0.16959281 0.006410716 -0.48132187 -0.3566956 -0.41662177 -0.30054805
00000000: ade7 63bc 53dd 1cbe 4f50 b4be f68d 83be
00000010: 3610 bbbe 8090 ccbe 067f 44be 853d c5be
00000020: 00ae 81bd 9e70 2cbf 5251 7cbe 1192 0cbf
00000030: cda9 18be e68f 03bf c8ed 6cbe 1c9a 48be
00000040: ef0e 56be f7bd 6dbe 76aa d4be ec8c 5cbe
00000050: f818 c9be 4000 01bf 8ab2 39be c8fd a3be
00000060: f23c 99be ea03 b7be bda9 2dbe fc10 d23b
00000070: d26f f6be cea0 b6be 734f d5be 6fe1 99be

context_transformer_0/attention/norm/mul;context_transformer_0/attention/norm/add;context_transformer_0/ffn_layer_0/intermediate_dense/einsum/Einsum;context_transformer_0/ffn_layer_0/intermediate_dense/Relu;context_transformer_0/ffn_layer_0/intermediate_dense/add f4 [32, 32]
0.4618535 0.27320412 0.20504314 -0.3074797 -0.24461083 0.20859869 -0.12339138 -0.05967036
0.21683083 0.020864058 -0.05232704 -0.23381537 0.06837019 0.14862294 0.043492764 0.19893794
0.102024265 0.08025436 0.056930583 0.17064543 0.19245425 0.012244817 -0.028017642 0.033546843
-0.24849734 -0.053298306 0.13438271 0.061150067 0.103363305 -0.14507067 0.1479785 0.20815438
0.19901264 0.04583326 -0.031375445 -0.011134316 -0.2220051 0.16577406 -0.022001827 0.38553357
0.33522326 -0.17388776 -0.25767428 -0.11889112 0.24063873 -0.010034939 0.099513605 -0.06963149
-0.15420128 0.23072322 0.19980586 0.14170331 0.107572824 -0.16983907 0.20794986 -0.10234354
0.2905275 0.19905187 -0.06928437 0.2534178 -0.108916044 -0.103424355 0.004311281 -0.08303239
-0.3194966 -0.03722218 0.076513365 0.017559985 -0.09961409 0.0208119 -0.031216726 0.016406672
-0.31579483 -0.08450908 0.30305207 0.039611105 0.00905165 -0.12156839 -0.052159272 -0.019818043
0.22570643 0.08482575 -0.17236258 0.13229121 -0.046440285 -0.12929207 -0.06518473 0.011813778
0.0036998312 0.00530542 -0.06441017 0.30616844 0.011089599 0.059337348 0.019139996 -0.02392453
-0.2829786 -0.15831466 -0.06582336 0.008498664 -0.05012099 0.315602 -0.070642956 -0.26724845
-0.12200761 0.070241004 0.25458264 -0.20901385 -0.033956654 -0.010336997 0.19225982 -0.1320499
0.10454348 0.56098175 -0.09222065 0.14134704 -0.045882333 -0.107363395 -0.09876084 0.00024476787
-0.13289562 -0.17188865 -0.06941516 -0.0027822067 0.04547337 0.2588951 0.058405377 -0.08042012
-0.3910394 0.10264991 0.024827845 -0.05033833 -0.08564508 0.08951457 0.017192561 0.015787415
-0.18477792 -0.038696695 0.2834454 0.09992287 -0.052921046 -0.15150075 -0.041856132 0.11577593
0.18169197 0.26489273 -0.30574813 0.043832626 -0.014835913 -0.17288284 -0.11655526 -0.035419952
0.11425277 -0.08295282 -0.1207341 0.42673227 0.018518124 0.24619113 0.10945221 -0.032944255
-0.12253012 0.145174 -0.22600707 0.1648535 -0.101874635 -0.08182674 0.11084633 0.04031829
-0.002752486 -0.07280765 0.18242495 -0.074554734 0.00292385 -0.042110987 -0.073099345 -0.32502997
-0.0018956221 0.2775579 0.19649963 0.04407316 0.09712143 0.014780754 0.12580897 0.015125731
0.008555753 -0.13608548 0.26990315 0.26053143 0.27045962 0.3420677 0.11619763 -0.067874305
-0.14637354 0.09086582 0.048239835 0.09258987 -0.12302736 0.04819068 0.056024555 0.028095623
0.017193008 0.079619706 0.36397493 0.06563877 0.07333598 0.16157444 0.1763604 -0.06209273
-0.18757896 -0.1948135 -0.2422826 0.06489592 -0.21650705 0.006459297 0.122317106 0.06692512
0.3454448 0.07277197 0.06331478 -0.02109779 0.122782044 0.011806943 0.032976985 -0.113113485
0.5498483 0.0826464 0.04573813 -0.30393025 -0.17665364 -0.06348302 -0.066633716 0.030119563
0.06278837 0.034674905 -0.050658498 -0.04708668 -0.12646057 0.20962927 0.18985853 -0.025960665
-0.06616399 0.0036075958 -0.09636361 0.15258792 -0.18229644 -0.06403384 -0.0732913 0.27821198
-0.087443225 -0.1673991 0.21529455 0.11987705 -0.11866492 0.12052238 0.15782593 0.026293093
00000000: 1078 ec3e 69e1 8b3e d4f6 513e fb6d 9dbe
00000010: 437b 7abe e59a 553e 9fb4 fcbd e868 74bd
00000020: e708 5e3e 1aeb aa3c e154 56bd 4c6d 6fbe
00000030: ac05 8c3d 9d30 183e 7825 323d 63b6 4b3e
00000040: 19f2 d03d 665c a43d 0b30 693d adbd 2e3e
00000050: ba12 453e 7c9e 483c 4185 e5bc 6a68 093d
00000060: 1676 7ebe 534f 5abd 9f9b 093e 7e78 7a3d
00000070: 24b0 d33d 688d 14be ad87 173e 6c26 553e
00000080: f8c9 4b3e a8bb 3b3d 8a83 00bd b56c 36bc
00000090: 4e55 63be adc0 293e 2d3d b4bc a864 c53e
000000a0: 62a2 ab3e a20f 32be e2ed 83be 307d f3bd
000000b0: 006a 763e 9669 24bc cacd cb3d f49a 8ebd
000000c0: f1e6 1dbe b542 6c3e e899 4c3e ac1a 113e
000000d0: 244f dc3d 4bea 2dbe cff0 543e 7d99 d1bd
000000e0: 05c0 943e 41d4 4b3e f7e4 8dbd fabf 813e
000000f0: 600f dfbd 26d0 d3bd a545 8d3b e30c aabd
00000100: 0f95 a3be 4976 18bd 0ab3 9c3d f5d9 8f3c
00000110: 7902 ccbd b87d aa3c 38ba ffbc 4967 863c
00000120: dcaf a1be 1913 adbd a429 9b3e 413f 223d
00000130: 5f4d 143c d9f8 f8bd f6a4 55bd 7359 a2bc
00000140: 961f 673e 1fb9 ad3d d17f 30be 5977 073e
00000150: 2b38 3ebd 2465 04be 927f 85bd 948e 413c
00000160: de78 723b 17d9 ad3b 7be9 83bd 1cc2 9c3e
00000170: 26b1 353c b80b 733d 7bcb 9c3c 60fd c3bc
00000180: 92e2 90be 3d1d 22be 66ce 86bd fb3d 0b3c
00000190: ab4b 4dbd 9696 a13e 41ad 90bd cad4 88be
000001a0: 20df f9bd 84da 8f3d a858 823e ba07 56be
000001b0: 2216 0bbd 825c 29bc c2df 443e 1738 07be
000001c0: e41a d63d 809c 0f3f 2ede bcbd 47bd 103e
000001d0: 1def 3bbd 57e1 dbbd 2043 cabd 3054 8039
000001e0: ca15 08be 9403 30be 8929 8ebd af55 36bb
000001f0: 4942 3a3d e68d 843e 7a3a 6f3d 4eb3 a4bd
00000200: 5136 c8be 1e3a d23d c463 cb3c 912f 4ebd
00000210: b066 afbd 6a53 b73d 6ad7 8c3c 9c54 813c
00000220: 6c36 3dbe 6d80 1ebd c11f 913e 5da4 cc3d
00000230: bdc3 58bd 0323 1bbe 5671 2bbd ee1b ed3d
00000240: 760d 3a3e 05a0 873e 058b 9cbe d789 333d
00000250: 5412 73bc 3308 31be 86b4 eebd 8314 11bd
00000260: 5bfd e93d 2be3 a9bd 7143 f7bd a77c da3e
00000270: 52b3 973c 8719 7c3e 7b28 e03d 8ef0 06bd
00000280: 12f1 fabd 7ea8 143e 666e 67be 5bcf 283e
00000290: a6a3 d0bd c794 a7bd 6703 e33d cb24 253d
000002a0: 0d63 34bb 2d1c 95bd 9bcd 3a3e 27b0 98bd
000002b0: 109e 3f3b 927c 2cbd 1cb5 95bd 546a a6be
000002c0: 8676 f8ba 121c 8e3e 3337 493e 0f86 343d
000002d0: 9ae7 c63d fa2a 723c 11d4 003e ead1 773c
000002e0: 6e2d 0c3c fe59 0bbe bf30 8a3e 6064 853e
000002f0: af79 8a3e 7f23 af3e 06f9 ed3d af01 8bbd
00000300: f2e2 15be dc17 ba3d 2297 453d c29f bd3d
00000310: c5f5 fbbd 9763 453d 017a 653d cb28 e63c
00000320: 5ad8 8c3c a80f a33d ec5a ba3e 9f6d 863d
00000330: 2d31 963d c573 253e d297 343e f254 7ebd
00000340: b314 40be 317d 47be ee18 78be 27e8 843d
00000350: 06b4 5dbe 83a8 d33b 6481 fa3d 0a10 893d
00000360: 24de b03e 7809 953d 2eab 813d 46d5 acbc
00000370: 2775 fb3d e971 413c e012 073d 0ba8 e7bd
00000380: dcc2 0c3f 8442 a93d e857 3b3d bf9c 9bbe
00000390: b1e4 34be 6303 82bd 4277 88bd 4dbd f63c
000003a0: 3097 803d 4607 0e3d 497f 4fbd f6dd 40bd
000003b0: e17e 01be 0ea9 563e 466a 423e 76ab d4bc
000003c0: fc80 87bd 6a6d 6c3b 495a c5bd 0240 1c3e
000003d0: ebab 3abe 2d24 83bd c019 96bd cd71 8e3e
000003e0: 6f15 b3bd ab6a 2bbe 2d76 5c3e 1982 f53d
000003f0: 9806 f3bd 70d4 f63d 1f9d 213e 9d64 d73c

context_transformer_0/ffn_layer_1/intermediate_dense/einsum/Einsum;context_transformer_0/ffn_layer_1/intermediate_dense/Relu;context_transformer_0/ffn_layer_1/intermediate_dense/add f4 [32]
-0.17890546 0.009738311 -0.23900613 -0.15373333 -0.18768284 0.12645654 -0.4755429 -0.15553918
-0.06933835 -0.057782985 -0.040484056 -0.24642946 -0.38286403 -0.32522616 -0.27632725 -0.09387322
-0.1584028 -0.1457348 -0.34650823 -0.07389536 -0.09643645 -0.29248014 -0.1084598 0.028472673
-0.10069877 -0.2902809 -0.37455735 -0.35861528 -0.11242509 -0.2594876 -0.23870519 -0.14477848
00000000: fe32 37be 708d 1f3c 06be 74be 456c 1dbe
00000010: ee2f 40be d37d 013e 5c7a f3be aa45 1fbe
00000020: 4401 8ebd daad 6cbd 9cd2 25bd 0158 7cbe
00000030: c106 c4be 0b84 a6be c47a 8dbe 9a40 c0bd
00000040: 5834 22be 813b 15be 8769 b1be 7356 97bd
00000050: 7980 c5bd f5bf 95be 2c20 debd 863f e93c
00000060: 283b cebd b39f 94be fbc5 bfbe 6c9c b7be
00000070: 203f e6bd 8fdb 84be 226f 74be cf40 14be

context_transformer_0/ffn_layer_0/norm/mul;context_transformer_0/ffn_layer_0/norm/add;context_transformer_0/ffn_layer_1/intermediate_dense/einsum/Einsum;context_transformer_0/ffn_layer_1/intermediate_dense/Relu;context_transformer_0/ffn_layer_1/intermediate_dense/add f4 [32, 32]
-0.062006686 -0.03778101 0.20459023 -0.02097833 -0.016544944 0.04104251 0.02857795 0.033154722
0.031845804 -0.02747188 0.03429198 0.017877035 -0.02239507 -0.23699142 -0.20998739 0.20082454
-0.4561018 0.06667366 -0.11365577 0.18679133 -0.010599915 0.04074799 -0.1398763 0.115827285
-0.056544665 -0.17049605 -0.089107715 0.17859967 -0.038579192 0.06742237 -0.03131245 0.089474715
0.15991056 -0.023063935 0.009325993 0.13045448 0.023977123 0.11320095 0.06285511 0.19721322
-0.1301786 -0.12608047 -0.12226539 -0.13698782 -0.021120165 -0.14025132 -0.049733236 0.032543596
-0.06658677 0.47196278 -0.14729531 -0.13711306 0.083904296 -0.05148322 0.102391444 -0.39264557
0.09824032 0.27771837 -0.17901868 0.08291848 -0.0076070954 -0.18617672 -0.12638469 -0.06168764
0.33914325 0.2515725 -0.22866386 0.14534289 0.22759867 0.22548619 0.3970021 0.1133948
0.074215144 0.059420474 -0.40197375 -0.14393456 0.06813832 -0.018714102 0.16205654 -0.09646382
-0.26623705 0.20568976 -0.29141575 -0.008711441 0.12804428 -0.41870284 0.020267874 0.07404134
-0.04600075 0.09807094 -0.20776805 0.15779111 0.1373954 -0.15497711 -0.14053814 -0.23799507
0.1202812 -0.100001 0.023343336 -0.09497713 -0.0148153305 -0.073868506 -0.18485352 0.08053972
-0.07009146 0.12047286 -0.21732555 -0.34559408 -0.17912984 -0.041927446 0.01592813 0.10170634
-0.043788526 0.38998824 0.22809497 -0.053350627 0.008005389 -0.034477875 -0.09784396 -0.07540894
-0.07310477 0.11481125 -0.044814378 -0.037396006 -0.1227315 -0.11816221 0.13446377 0.51225984
-0.029854871 -0.06226007 0.2382481 -0.13434044 -0.02373387 0.059305485 -0.00053013104 0.20191456
-0.0057395212 -0.092691265 0.104477346 -0.08621671 -0.024170585 -0.051858414 -0.29702863 -0.04503664
-0.49996448 -0.07551376 -0.11365882 0.15002741 -0.038649477 -0.07258772 0.0010790034 0.20783883
-0.22978748 0.022248665 -0.021831052 0.078215845 0.05473308 0.14806129 -0.1266828 0.1604236
0.14351316 -0.10180403 0.024651857 0.110672 0.05349011 0.1532279 -0.0469572 -0.19003542
0.087177046 0.11797828 -0.077614315 0.02248398 0.12541938 -0.14215122 -0.22801344 0.083073586
0.073884 0.07166276 0.1725443 0.33297813 0.044548903 0.010869181 0.070766754 -0.07464712
-0.006108524 0.042511176 0.25449553 0.6436537 0.15127963 -0.23635499 0.0651575 0.075404145
0.045137838 0.0007830586 -0.15763295 -0.058877386 0.07760965 0.025815204 -0.07763035 -0.016989345
0.019957686 -0.029203186 0.002387322 -0.12368617 -0.070814356 0.22862531 0.0006466878 -0.2735024
0.3158616 -0.05508948 0.07840293 0.072897024 0.021660652 -0.06747982 0.08140483 0.012771411
-0.05038542 0.21938284 0.03145589 -0.14713392 0.08432296 -0.08024678 0.11556019 -0.058510628
0.030311631 0.026499283 0.010702061 -0.010312595 0.012562217 0.0022828572 -0.0004620006 -0.0055516046
-0.032008946 0.025662133 -0.012300825 0.010267648 0.01314398 0.02410796 0.010966373 -0.028065795
-0.022104498 -0.026824117 -0.02763452 0.058611497 0.022752956 -0.038860448 -0.03448564 0.017978227
-0.024949254 0.018083062 -0.019653799 -0.0059207706 0.0016527829 -0.0038493793 0.04615091 0.005288296
00000000: b9fa 7dbd 43c0 1abd 1a80 513e bfda abbc
00000010: 4389 87bc 311c 283d 4e1c ea3c 3fcd 073d
00000020: bf70 023d b50c e1bc bf75 0c3d dc72 923c
00000030: de75 b7bc e1ad 72be ef06 57be f3a4 4d3e
00000040: 2d86 e9be 338c 883d 5bc4 e8bd 3a46 3f3e
00000050: 44ab 2dbc 5de7 263d bc3b 0fbe db36 ed3d
00000060: 619b 67bd 8496 2ebe 1b7e b6bd d5e2 363e
00000070: 3705 1ebd bd14 8a3d 7c41 00bd 853e b73d
00000080: 98bf 233e 94f0 bcbc 0dcc 183c dc95 053e
00000090: ac6b c43c e6d5 e73d 2eba 803d 43f2 493e
000000a0: 8a4d 05be 3d1b 01be 4766 fabd 8946 0cbe
000000b0: 3204 adbc 0b9e 0fbe 14b5 4bbd 6f4c 053d
000000c0: a55e 88bd 1ba5 f13e 95d4 16be 5e67 0cbe
000000d0: 04d6 ab3d 12e0 52bd 9bb2 d13d d708 c9be
000000e0: 3932 c93d 1a31 8e3e ac50 37be 2ad1 a93d
000000f0: f144 f9bb 1ca5 3ebe fd6a 01be 2eac 7cbd
00000100: 2fa4 ad3e 1cce 803e dc26 6abe c4d4 143e
00000110: a00f 693e dae5 663e dc43 cb3e 883b e83d
00000120: 1cfe 973d e262 733d 81cf cdbe 9563 13be
00000130: 1b8c 8b3d 514e 99bc 26f2 253e d38e c5bd
00000140: 3950 88be 56a0 523e 7234 95be 6fba 0ebc
00000150: 0a1e 033e 3860 d6be d008 a63c fca2 973d
00000160: 486b 3cbd 6bd9 c83d 26c1 54be fe93 213e
00000170: 61b1 0c3e 52b2 1ebe 3be9 0fbe fbb4 73be
00000180: fd55 f63d 53cd ccbd 863a bf3c 5f83 c2bd
00000190: 00bc 72bc 5f48 97bd 3e4a 3dbe 02f2 a43d
000001a0: 1d8c 8fbd 7aba f63d 978a 5ebe b5f1 b0be
000001b0: d06d 37be 1dbc 2bbd b67b 823c 6a4b d03d
000001c0: 995b 33bd 8aac c73e ba91 693e 3086 5abd
000001d0: 0929 033c ac38 0dbd 6a62 c8bd 0170 9abd
000001e0: f4b7 95bd 2922 eb3d 488f 37bd 8e2c 19bd
000001f0: a75a fbbd 07ff f1bd dfb0 093e 7623 033f
00000200: 3492 f4bc 6a04 7fbd 4ff7 733e 8a90 09be
00000210: 886d c2bc 4fea 723d 7ef8 0aba b1c2 4e3e
00000220: 9812 bcbb ebd4 bdbd 38f8 d53d 6392 b0bd
00000230: 6401 c6bc 7d69 54bd 2314 98be 5778 38bd
00000240: 58fb ffbe f5a6 9abd f5c5 e8bd c9a0 193e
00000250: ea4e 1ebd dfa8 94bd 596d 8d3a b4d3 543e
00000260: 694d 6bbe d542 b63c 09d7 b2bc a12f a03d
00000270: cb2f 603d 619d 173e 23b9 01be 1646 243e
00000280: 1df5 123e a27e d0bd b1f2 c93c 00a8 e23d
00000290: 7218 5b3d c6e7 1c3e 3156 40bd a598 42be
000002a0: e189 b23d 999e f13d 41f4 9ebd 5330 b83c
000002b0: f06d 003e 1790 11be 5b7c 69be 7c22 aa3d
000002c0: 7f50 973d edc3 923d 74af 303e 1c7c aa3e
000002d0: e978 363d a614 323c 29ee 903d 97e0 98bd
000002e0: 032a c8bb 3320 2e3d 3d4d 823e 7dc6 243f
000002f0: 0ce9 1a3e 0b07 72be 4c71 853d 7d6d 9a3d
00000300: 74e2 383d 2c46 4d3a 886a 21be 6a29 71bd
00000310: cff1 9e3d 687a d33c a9fc 9ebd 3d2d 8bbc
00000320: 4d7e a33c 853b efbc 9e74 1c3b 2d4f fdbd
00000330: 1e07 91bd c11c 6a3e 7c86 293a 8208 8cbe
00000340: 9db8 a13e 82a5 61bd b791 a03d 094b 953d
00000350: ae71 b13c dc32 8abd 93b7 a63d 2e3f 513c
00000360: f160 4ebd e5a5 603e e4d7 003d 46aa 16be
00000370: 84b1 ac3d 6c58 a4bd d2aa ec3d d7a8 6fbd
00000380: 1950 f83c 0615 d93c b257 2f3c 29f6 28bc
00000390: c2d1 4d3c fd9b 153b ac38 f2b9 3cea b5bb
000003a0: d01b 03bd 6539 d23c 6689 49bc a339 283c
000003b0: d959 573c 0e7e c53c 4dac 333c 3dea e5bc
000003c0: 7e14 b5bc 40be dbbc ca61 e2bc 9c12 703d
000003d0: 6864 ba3c 222c 1fbd d040 0dbd 1347 933c
000003e0: 6162 ccbc ee22 943c 0101 a1bc 0603 c2bb
000003f0: 31a2 d83a de45 7cbb bd08 3d3d 7149 ad3b

context_transformer_0/ffn_layer_2/intermediate_dense/einsum/Einsum;context_transformer_0/ffn_layer_2/intermediate_dense/Relu;context_transformer_0/ffn_layer_2/intermediate_dense/add f4 [32]
-0.18452111 -0.2725634 -0.10408061 -0.14179622 -0.23812962 -0.17967026 -0.14575534 -0.11270699
-0.64174074 -0.058851894 0.27649826 0.095281385 -0.065065265 0.44083858 -0.20500799 0.4793015
-0.10773905 -0.03876264 0.39891422 -0.14412525 -0.33513227 0.06259717 -0.4149414 -0.122656465
-0.58307785 -0.73795205 -0.09947539 -0.1886292 -0.14511068 -0.6876699 0.09892164 -0.5938506
00000000: 1af3 3cbe 6e8d 8bbe 3728 d5bd 0733 11be
00000010: 40d8 73be 7bfb 37be e340 15be ecd2 e6bd
00000020: 1f49 24bf af0e 71bd 2e91 8d3e e322 c33d
00000030: f040 85bd 98b5 e13e 9ded 51be 0267 f53e
00000040: 4ba6 dcbd 93c5 1ebd 7c3e cc3e 9295 13be
00000050: 7596 abbe f232 803d 3373 d4be 5033 fbbd
00000060: 9744 15bf 6dea 3cbf c1b9 cbbd 0328 41be
00000070: e597 14be 220b 30bf 6e97 ca3d 9806 18bf

context_transformer_0/ffn_layer_1/norm/mul;context_transformer_0/ffn_layer_1/norm/add;context_transformer_0/ffn_layer_2/intermediate_dense/einsum/Einsum;context_transformer_0/ffn_layer_2/intermediate_dense/Relu;context_transformer_0/ffn_layer_2/intermediate_dense/add f4 [32, 32]
-0.11432598 0.06693053 -0.15391019 -0.02063578 -0.12247293 -0.019051991 0.10727713 0.093824744
0.079456575 -0.043672368 -0.007798123 -0.35254288 -0.09916972 0.085736915 -0.024018364 -0.04526476
-0.036379788 0.05372865 -0.024566652 0.17359261 -0.033221394 -0.026672238 -0.13296233 0.04100497
0.029832825 -0.063682325 0.326509 0.01433718 0.1340677 -0.1235224 -0.16441537 -0.16483088
-0.152662 -0.05340033 -0.0044194004 -0.17236643 -0.13107182 0.17060594 0.13173023 -0.0630012
-0.05829346 0.30828577 -0.28904796 -0.04188747 0.14392698 0.23989876 -0.02955764 -0.019856319
-0.1091248 0.3541915 0.27442655 -0.12551418 0.0631112 -0.07116547 -0.17732619 0.14345275
-0.01988078 0.07679099 -0.16989355 0.0075386246 0.05393003 -0.040312275 0.14002645 0.010847917
-0.10403326 -0.12684512 -0.053733595 -0.0490341 -0.22490413 0.014569063 0.07629711 0.10910547
-0.062324785 -0.1712201 0.27158287 0.011801174 -0.21211793 0.07091575 -0.049187683 -0.08412851
0.06516032 0.0074767233 0.4062194 0.23945984 0.19291845 0.12320815 0.09269363 -0.0151049765
0.22700104 -0.07852981 -0.05891192 0.1479869 -0.053384554 0.23889147 -0.013595155 -0.15936197
0.025413593 -1.9293959e-05 0.026551144 -0.032215815 0.007654949 0.007032166 -0.014131126 0.00057136343
0.01083935 -0.0009769755 -0.01695676 0.036747772 0.0010268306 0.030137474 0.002899062 0.0012217127
-0.0048814774 0.019340182 -0.02617432 0.018938465 0.010002423 -0.024625234 0.005334252 0.004768372
0.0036429616 0.029860321 -0.0012628778 0.028254578 0.0039081266 -0.033960912 0.025557216 -0.021132143
0.07212466 0.04728241 0.019894566 0.17008865 -0.049630597 0.01047075 0.10981175 -0.11099628
-0.050672755 0.09560814 -0.113642156 0.14789145 -0.094745554 -0.22005466 -0.01933864 0.24189462
-0.18886177 0.013844509 0.009150465 0.02205653 0.037942857 0.03744382 -0.03813623 -0.0789231
0.14628306 -0.11497154 0.053242993 0.048419856 -0.017023936 -0.043283433 0.23784143 -0.026600214
0.08411419 0.0070352247 0.027608505 0.034618925 -0.12908396 -0.023238692 -0.061691575 0.15810323
-0.014070769 0.18895191 0.053664684 0.02072743 -0.044020943 -0.18200229 0.30254525 -0.06783877
-0.03352077 0.06683454 -0.118808165 0.18105675 -0.41306475 0.24965583 0.10559952 -0.09240891
0.019474545 0.030400937 -0.06456594 -0.04796394 0.24310108 0.04324108 0.06729084 -0.039890666
-0.21933593 0.08897764 -0.17217879 -0.07047802 -0.076099046 0.05767941 -0.21839249 -0.043973513
0.019817302 -0.045749303 -0.022520136 0.02265966 -0.15483475 0.11878555 -0.20362598 -0.06430906
0.16078542 0.044129506 -0.070436396 0.14627075 0.032535568 0.13392411 0.16944075 0.13572553
-0.11209759 0.074514 -0.0031085962 -0.021425914 0.0090744635 -0.008796621 0.24171367 -0.0047246306
0.2664558 0.051005103 0.06557142 -0.07727474 -0.17998885 -0.06461257 -0.056368124 0.09710461
-0.009439916 0.07951639 -0.16636235 0.10099542 0.13527924 -0.044706378 0.2539875 -0.070280366
-0.06694905 0.06756723 -0.074834965 0.12033301 -0.2942859 0.12330024 0.07084377 0.05391529
-0.08440653 -0.029641163 -0.0857432 -0.046385787 0.09228526 0.13372713 0.090055 -0.16821474
00000000: bd23 eabd e012 893d a29a 1dbe 5e0c a9bc
00000010: 16d3 fabd ec12 9cbc 1db4 db3d 3027 c03d
00000020: 21ba a23d cce1 32bd 6687 ffbb 8080 b4be
00000030: 7f19 cbbd d696 af3d 29c2 c4bc 8a67 39bd
00000040: f902 15bd 9312 5c3d 0140 c9bc 43c2 313e
00000050: 2813 08bd bd7f dabc 4727 08be d4f4 273d
00000060: f863 f43c e16b 82bd 302c a73e 7ee6 6a3c
00000070: 0b49 093e 50f9 fcbd 815c 28be 6dc9 28be
00000080: 6d53 1cbe 4eba 5abd 9ed0 90bb d380 30be
00000090: b137 06be 53b3 2e3e 4ae4 063e c606 81bd
000000a0: 20c5 6ebd a2d7 9d3e 18fe 93be 3292 2bbd
000000b0: 9861 133e 05a8 753e dd22 f2bc b8a9 a2bc
000000c0: d37c dfbd 9758 b53e a381 8c3e ca86 00be
000000d0: 7240 813d 34bf 91bd ff94 35be 47e5 123e
000000e0: 04dd a2bc 9844 9d3d 93f8 2dbe 9106 f73b
000000f0: bce5 5c3d 7c1e 25bd 1863 0f3e 76bb 313c
00000100: 640f d5bd b0e3 01be c217 5cbd fbd7 48bd
00000110: 454d 66be 14b3 6e3c a941 9c3d b072 df3d
00000120: 4648 7fbd 5254 2fbe e90c 8b3e b659 413c
00000130: 7135 59be 473c 913d 0679 49bd 914b acbd
00000140: c672 853d 4dff f43b fdfb cf3e f634 753e
00000150: 6a8c 453e 8e54 fc3d 28d6 bd3d dd7a 77bc
00000160: f672 683e 3dd4 a0bd a04d 71bd e189 173e
00000170: c3a9 5abd f79f 743e 37be 5ebc c92f 23be
00000180: 2b30 d03c 76d9 a1b7 c981 d93c bbf4 03bd
00000190: 5ed6 fa3b 156e e63b 3d86 67bc 8dc7 153a
000001a0: 8797 313c dc0d 80ba e7e8 8abc d584 163d
000001b0: b896 863a dde2 f63c 30fe 3d3b e021 a03a
000001c0: cdf4 9fbb 4d6f 9e3c 876b d6bc d724 9b3c
000001d0: 34e1 233c dcba c9bc f3ca ae3b 0140 9c3b
000001e0: c1be 6e3b a29d f43c 2687 a5ba 2576 e73c
000001f0: be0f 803b 991a 0bbd 5e5d d13c 511d adbc
00000200: 18b6 933d 33ab 413d eef9 a23c b82b 2e3e
00000210: 7449 4bbd 828d 2b3c fce4 e03d 0552 e3bd
00000220: 3c8e 4fbd 33ce c33d 38bd e8bd db70 173e
00000230: f509 c2bd 0256 61be 116c 9ebc 39b3 773e
00000240: fb64 41be 14d4 623c d5eb 153c e5af b43c
00000250: f869 1b3d b15e 193d bc34 1cbd 6fa2 a1bd
00000260: 3acb 153e 3376 ebbd 5315 5a3d e653 463d
00000270: c875 8bbc f849 31bd b48c 733e b1e8 d9bc
00000280: 0f44 ac3d be87 e63b 3b2b e23c 93cc 0d3d
00000290: 962e 04be 125f bebc 4eb0 7cbd d0e5 213e
000002a0: 1589 66bc 9c7c 413e 80cf 5b3d 92cc a93c
000002b0: 4e4f 34bd cf5e 3abe 36e7 9a3e 0eef 8abd
000002c0: 134d 09bd 8ce0 883d b251 f3bd f166 393e
000002d0: 397d d3be c7a5 7f3e 9044 d83d e240 bdbd
000002e0: 1589 9f3c 630b f93c 263b 84bd d675 44bd
000002f0: 7def 783e 8f1d 313d c8cf 893d 6564 23bd
00000300: 9999 60be e939 b63d a34f 30be c856 90bd
00000310: d1d9 9bbd 3f41 6c3d 48a2 5fbe 921d 34bd
00000320: e557 a23c 9f63 3bbd 267c b8bc c0a0 b93c
00000330: 008d 1ebe d745 f33d 5483 50be 78b4 83bd
00000340: efa4 243e 24c1 343d f540 90bd 00c8 153e
00000350: 0444 053d 6723 093e e081 2d3e a2fb 0a3e
00000360: 6c93 e5bd cc9a 983d 97b9 4bbb 6685 afbc
00000370: 0fad 143c b41f 10bc ca83 773e 13d1 9abb
00000380: e56c 883e baea 503d 4f4a 863d 3842 9ebd
00000390: ff4e 38be 9853 84bd 43e2 66bd c8de c63d
000003a0: e1a9 1abc 7dd9 a23d e45a 2abe b0d6 ce3d
000003b0: a486 0a3e 091e 37bd a60a 823e 27ef 8fbd
000003c0: 951c 89bd b060 8a3d 1343 99bd 2771 f63d
000003d0: a4ac 96be d684 fc3d 8a16 913d 47d6 5c3d
000003e0: 55dd acbd 06d2 f2bc 219a afbd 06ff 3dbd
000003f0: 0e00 bd3d c4ef 083e c16e b83d 7c40 2cbe

context_transformer_0/ffn_layer_3/intermediate_dense/einsum/Einsum;context_transformer_0/ffn_layer_3/intermediate_dense/Relu;context_transformer_0/ffn_layer_3/intermediate_dense/add f4 [32]
4.7695845e-05 -0.18767054 -0.26400363 -0.0754122 -0.29808822 -0.27632496 -0.21631119 -0.109225616
-0.3084877 -0.20429249 -0.11304995 -0.025556 -0.05546304 -0.04898009 -0.067436896 -0.13514477
0.059588596 -0.04394081 -0.07970126 0.25330222 0.16006984 -0.2837081 0.07474153 -0.22974369
0.102001764 -0.35179833 -0.018236704 0.036034636 0.03907187 -0.11775986 -0.080642276 -0.18390061
00000000: 060d 4838 b52c 40be 7c2b 87be b671 9abd
00000010: 059f 98be 777a 8dbe ae80 5dbe aeb1 dfbd
00000020: 1af2 9dbe 0d32 51be bb86 e7bd d15a d1bc
00000030: 362d 63bd 599f 48bd 5b1c 8abd 6463 0abe
00000040: 2c13 743d 47fb 33bd 6a3a a3bd d4b0 813e
00000050: 59e9 233e 3042 91be 1612 993d ee41 6bbe
00000060: 4de6 d03d e91e b4be 2465 95bc 0e99 133d
00000070: d309 203d 152c f1bd c727 a5bd 7150 3cbe
